[config]

[convolutional]
filters=64
size=3
stride=1
pad=1
activation=leaky

[convolutional]
filters=64
size=3
stride=1
pad=1
activation=leaky

[maxpool]
stride=2
size=2

[convolutional]
filters=128
size=3
stride=1
pad=1
activation=leaky

[convolutional]
filters=128
size=3
stride=1
pad=1
activation=leaky

[maxpool]
stride=2
size=2

[convolutional]
filters=256
size=3
stride=1
pad=1
activation=leaky

[convolutional]
filters=256
size=3
stride=1
pad=1
activation=leaky

[convolutional]
filters=256
size=3
stride=1
pad=1
activation=leaky

[maxpool]
stride=2
size=2
ceil_mode=1

[convolutional]
filters=512
size=3
stride=1
pad=1
activation=leaky

[convolutional]
filters=512
size=3
stride=1
pad=1
activation=leaky

[convolutional]
filters=512
size=3
stride=1
pad=1
activation=leaky

[maxpool]
stride=2
size=2

[convolutional]
filters=512
size=3
stride=1
pad=1
activation=leaky

[convolutional]
filters=512
size=3
stride=1
pad=1
activation=leaky

[convolutional]
filters=512
size=3
stride=1
pad=1
activation=leaky

[maxpool]
stride=1
size=3
pad=1

[convolutional]
filters=1024
size=3
stride=1
pad=6
dilation=6
activation=leaky

[convolutional]
filters=1024
size=1
stride=1
activation=leaky